…
<figure class="highlight plain"><table><tr><td class="code"><pre><span class="line">Model: &quot;sequential_1&quot;</span><br><span class="line">_________________________________________________________________</span><br><span class="line">Layer (type)                 Output Shape              Param #   </span><br><span class="line">&#x3D;&#x3D;&#x3D;&#x3D;&#x3D;&#x3D;&#x3D;&#x3D;&#x3D;&#x3D;&#x3D;&#x3D;&#x3D;&#x3D;&#x3D;&#x3D;&#x3D;&#x3D;&#x3D;&#x3D;&#x3D;&#x3D;&#x3D;&#x3D;&#x3D;&#x3D;&#x3D;&#x3D;&#x3D;&#x3D;&#x3D;&#x3D;&#x3D;&#x3D;&#x3D;&#x3D;&#x3D;&#x3D;&#x3D;&#x3D;&#x3D;&#x3D;&#x3D;&#x3D;&#x3D;&#x3D;&#x3D;&#x3D;&#x3D;&#x3D;&#x3D;&#x3D;&#x3D;&#x3D;&#x3D;&#x3D;&#x3D;&#x3D;&#x3D;&#x3D;&#x3D;&#x3D;&#x3D;&#x3D;&#x3D;</span><br><span class="line">dense_1 (Dense)              (None, 32)                896       </span><br><span class="line">_________________________________________________________________</span><br><span class="line">dense_2 (Dense)              (None, 32)                1056      </span><br><span class="line">_________________________________________________________________</span><br><span class="line">dropout_1 (Dropout)          (None, 32)                0         </span><br><span class="line">_________________________________________________________________</span><br><span class="line">dense_3 (Dense)              (None, 32)                1056      </span><br><span class="line">_________________________________________________________________</span><br><span class="line">dense_4 (Dense)              (None, 1)                 33        </span><br><span class="line">&#x3D;&#x3D;&#x3D;&#x3D;&#x3D;&#x3D;&#x3D;&#x3D;&#x3D;&#x3D;&#x3D;&#x3D;&#x3D;&#x3D;&#x3D;&#x3D;&#x3D;&#x3D;&#x3D;&#x3D;&#x3D;&#x3D;&#x3D;&#x3D;&#x3D;&#x3D;&#x3D;&#x3D;&#x3D;&#x3D;&#x3D;&#x3D;&#x3D;&#x3D;&#x3D;&#x3D;&#x3D;&#x3D;&#x3D;&#x3D;&#x3D;&#x3D;&#x3D;&#x3D;&#x3D;&#x3D;&#x3D;&#x3D;&#x3D;&#x3D;&#x3D;&#x3D;&#x3D;&#x3D;&#x3D;&#x3D;&#x3D;&#x3D;&#x3D;&#x3D;&#
…
e">model.add(layers.Dense(<span class="number">64</span>, activation=<span class="string">"relu"</span>))</span><br><span class="line">model.add(layers.Dense(<span class="number">10</span>, activation=<span class="string">"softmax"</span>))</span><br><span class="line">model.summary()</span><br></pre></td></tr></table></figure>
<pre><code>Model: &quot;sequential_4&quot;
_________________________________________________________________
Layer (type)                 Output Shape              Param #   
=================================================================
conv2d_8 (Conv2D)            (None, 26, 26, 32)        320       
_________________________________________________________________
max_pooling2d_5 (MaxPooling2 (None, 13, 13, 32)        0         
_________________________________________________________________
conv2d_9 (Conv2D)            (None, 11, 11, 64)        18496     
_________________________________________________________________
max_pooling2d_6 (MaxPooling2 (None, 5, 5, 64)          0         
_________________________________________________________________
conv2d_10 (Conv2D)           (None, 3, 3, 64)          36928     
_________________________________________________________________
flatten_1 (Flatten)          (None, 576)               0         
_________________________________________________________________
dense_1 (Dense)              (None, 64)                36928     
_________________________________________________________________
dense_2 (Dense)              (None, 10)                650       
=================================================================
Total params: 93,322
Trainable params: 93,322
Non-trainable params: 0
_________________________________________________________________
</code></pre><figure class="highlight python"><table><tr><td class="code"><pre><span class="line"><span class="keyword">from</span> keras.datasets <span class="keyword">import</span> mnist</span><br><span class="line"><span class="keyword">from</span> keras.utils <span class="keyword">import</span> to_categorical</span><br></pre></td></tr></table></figure>
…
<figure class="highlight python"><table><tr><td class="code"><pre><span class="line"><span class="keyword">from</span> keras.applications <span class="keyword">import</span> VGG16</span><br><span class="line">conv_base = VGG16(weights=<span class="string">'imagenet'</span>, include_top=<span class="literal">False</span>, input_shape=(<span class="number">150</span>, <span class="number">150</span>, <span class="number">3</span>))</span><br><span class="line">conv_base.summary()</span><br></pre></td></tr></table></figure>
<pre><code>Model: &quot;vgg16&quot;
_________________________________________________________________
Layer (type)                 Output Shape              Param #   
=================================================================
input_2 (InputLayer)         (None, 150, 150, 3)       0         
_________________________________________________________________
block1_conv1 (Conv2D)        (None, 150, 150, 64)      1792      
_________________________________________________________________
block1_conv2 (Conv2D)        (None, 150, 150, 64)      36928     
_________________________________________________________________
block1_pool (MaxPooling2D)   (None, 75, 75, 64)        0         
_________________________________________________________________
block2_conv1 (Conv2D)        (None, 75, 75, 128)       73856     
_________________________________________________________________
block2_conv2 (Conv2D)        (None, 75, 75, 128)       147584    
_________________________________________________________________
block2_pool (MaxPooling2D)   (None, 37, 37, 128)       0         
_________________________________________________________________
block3_conv1 (Conv2D)        (None, 37, 37, 256)       295168    
_________________________________________________________________
block3_conv2 (Conv2D)        (None, 37, 37, 256)       590080    
_________________________________________________________________
block3_conv3 (Conv2D)        (None, 37, 37, 256)       590080    
_________________________________________________________________
block3_pool (MaxPooling2D)   (None, 18, 18, 256)       0         
_________________________________________________________________
block4_conv1 (Conv2D)        (None, 18, 18, 512)       1180160   
_________________________________________________________________
block4_conv2 (Conv2D)        (None, 18, 18, 512)       2359808   
_________________________________________________________________
block4_conv3 (Conv2D)        (None, 18, 18, 512)       2359808   
_________________________________________________________________
block4_pool (MaxPooling2D)   (None, 9, 9, 512)         0         
_________________________________________________________________
block5_conv1 (Conv2D)        (None, 9, 9, 512)         2359808   
_________________________________________________________________
block5_conv2 (Conv2D)        (None, 9, 9, 512)         2359808   
_________________________________________________________________
block5_conv3 (Conv2D)        (None, 9, 9, 512)         2359808   
_________________________________________________________________
block5_pool (MaxPooling2D)   (None, 4, 4, 512)         0         
=================================================================
Total params: 14,714,688
Trainable params: 14,714,688
Non-trainable params: 0
_________________________________________________________________
</code></pre><figure class="highlight python"><table><tr><td class="code"><pre><span class="line"><span class="keyword">import</span> os</span><br><span class="line"><span class="k
…
<h1 id="可视化中间激活"><a href="#可视化中间激活" class="headerlink" title="可视化中间激活"></a>可视化中间激活</h1><figure class="highlight python"><table><tr><td class="code"><pre><span class="line"><span class="keyword">from</span> keras.models <span class="keyword">import</span> load_model</span><br><span class="line">model = load_model(<span class="string">'model/cats_and_dogs_small_2.h5'</span>)</span><br><span class="line">model.summary()</span><br></pre></td></tr></table></figure>
<pre><code>Model: &quot;sequential_5&quot;
_________________________________________________________________
Layer (type)                 Output Shape              Param #   
=================================================================
conv2d_11 (Conv2D)           (None, 148, 148, 32)      896       
_________________________________________________________________
max_pooling2d_7 (MaxPooling2 (None, 74, 74, 32)        0         
_________________________________________________________________
conv2d_12 (Conv2D)           (None, 72, 72, 64)        18496     
_________________________________________________________________
max_pooling2d_8 (MaxPooling2 (None, 36, 36, 64)        0         
_________________________________________________________________
conv2d_13 (Conv2D)           (None, 34, 34, 128)       73856     
_________________________________________________________________
max_pooling2d_9 (MaxPooling2 (None, 17, 17, 128)       0         
_________________________________________________________________
conv2d_14 (Conv2D)           (None, 15, 15, 128)       147584    
_________________________________________________________________
max_pooling2d_10 (MaxPooling (None, 7, 7, 128)         0         
_________________________________________________________________
flatten_2 (Flatten)          (None, 6272)              0         
_________________________________________________________________
dropout_1 (Dropout)          (None, 6272)              0         
_________________________________________________________________
dense_3 (Dense)              (None, 512)               3211776   
_________________________________________________________________
dense_4 (Dense)              (None, 1)                 513       
=================================================================
Total params: 3,453,121
Trainable params: 3,453,121
Non-trainable params: 0
_________________________________________________________________
</code></pre><p>接下来，我们需要一张输入图像，即一张猫的图像，它不属于网络的训练图像。</p>
<figure class="highlight python"><table><tr><td class="code"><pre><span class="line"><span class="keyword">from</span> keras.pre
…
</code></pre><p>重要的是，卷积神经网络接收形状为<code>(image_height, image_width, image_channels)</code>的输入张量（不包括批量维度）。本例中设置卷积神经网络处理大小为(28, 28, 1) 的输入张量，这正是MNIST 图像的格式。我们向第一层传入参数<code>input_shape=(28, 28, 1)</code> 来完成此设置。</p>
<p>我们来看一下目前卷积神经网络的架构。</p>
<figure class="highlight python"><table><tr><td class="code"><pre><span class="line">model.summary()</span><br></pre></td></tr></table></figure>
<pre><code>Model: &quot;sequential_1&quot;
_________________________________________________________________
Layer (type)                 Output Shape              Param #   
=================================================================
conv2d_1 (Conv2D)            (None, 26, 26, 32)        320       
_________________________________________________________________
max_pooling2d_1 (MaxPooling2 (None, 13, 13, 32)        0         
_________________________________________________________________
conv2d_2 (Conv2D)            (None, 11, 11, 64)        18496     
_________________________________________________________________
max_pooling2d_2 (MaxPooling2 (None, 5, 5, 64)          0         
_________________________________________________________________
conv2d_3 (Conv2D)            (None, 3, 3, 64)          36928     
=================================================================
Total params: 55,744
Trainable params: 55,744
Non-trainable params: 0
_________________________________________________________________
</code></pre><p>可以看到，每个Conv2D 层和MaxPooling2D 层的输出都是一个形状为(height, width,channels) 的3D 张量。宽度和高度两个维度的尺寸通常会随着网络加深而变小，通道数量由传<br>入Conv2D 层的第一个参数所控制（32 或64）。</p>
<p>下一步是将最后的输出张量［大小为(3, 3, 64)］输入到一个密集连接分类器网络中，即Dense 层的堆叠，你已经很熟悉了。这些分类器可以处理1D 向量，而当前的输出是3D 张量。首先，我们需要将3D 输出展平为1D，然后在上面添加几个Dense 层。</p>
…
e">model.add(layers.Dense(<span class="number">512</span>, activation=<span class="string">'relu'</span>))</span><br><span class="line">model.add(layers.Dense(<span class="number">1</span>, activation=<span class="string">'sigmoid'</span>))</span><br><span class="line">model.summary()</span><br></pre></td></tr></table></figure>
<pre><code>Model: &quot;sequential_4&quot;
_________________________________________________________________
Layer (type)                 Output Shape              Param #   
=================================================================
conv2d_8 (Conv2D)            (None, 148, 148, 32)      896       
_________________________________________________________________
max_pooling2d_4 (MaxPooling2 (None, 74, 74, 32)        0         
_________________________________________________________________
conv2d_9 (Conv2D)            (None, 72, 72, 64)        18496     
_________________________________________________________________
max_pooling2d_5 (MaxPooling2 (None, 36, 36, 64)        0         
_________________________________________________________________
conv2d_10 (Conv2D)           (None, 34, 34, 128)       73856     
_________________________________________________________________
max_pooling2d_6 (MaxPooling2 (None, 17, 17, 128)       0         
_________________________________________________________________
flatten_2 (Flatten)          (None, 36992)             0         
_________________________________________________________________
dense_3 (Dense)              (None, 512)               18940416  
_________________________________________________________________
dense_4 (Dense)              (None, 1)                 513       
=================================================================
Total params: 19,034,177
Trainable params: 19,034,177
Non-trainable params: 0
_________________________________________________________________
</code></pre><p>在编译这一步，和前面一样，我们将使用RMSprop 优化器。因为网络最后一层是单一sigmoid单元，所以我们将使用二元交叉熵作为损失函数</p>
<figure class="highlight python"><table><tr><td class="code"><pre><span class="line"><span c
…
